chatbot/pytorch-chatbot/data/data.pth (torch, 7383 bytes, 6 tensors)

l1.weight f4 [8, 108]
0.47680935 -0.40503383 1.0351166 -0.44372192 0.3619042 0.4463168 0.35023594 0.43554035
-0.5171697 -0.28177232 0.6597788 -0.6455632 -0.6099835 -0.046372425 0.56919605 0.0650082
0.7131368 -0.28836656 0.019009188 -0.19905134 -0.07038679 -0.3090238 -0.26983216 -0.37176543
-0.26624942 -0.2625672 -0.15563266 -0.44043815 0.5421258 -0.059141546 -0.61974865 -0.05917567
-0.3149227 0.39192146 0.26430348 0.5439156 -0.2547761 0.5630942 0.26528615 0.18969561
0.18418765 -0.05419787 -0.30775416 0.661408 0.32379085 0.7471295 0.7134716 0.22502545
0.42754176 -0.28182292 0.06454581 0.23777547 0.3540526 0.28546694 -0.33195448 0.4987265
0.09171349 0.592392 -0.26226074 -0.2943905 -0.24217087 -0.43985844 0.054746725 0.24416423
-0.027560934 -0.26032203 -0.3140681 -0.64685464 -0.422655 0.15043639 -0.35235253 0.24093527
0.735227 -0.08473492 -0.64688873 -0.30013806 -0.64975846 0.3627975 -0.19648029 -0.6469129
0.31233218 -0.19872384 0.2003944 0.03806815 -0.55158776 0.44865295 0.09583716 0.16316035
0.25975376 0.048864596 -0.88581884 -0.23386203 0.0007127136 0.59652376 0.6907081 -0.24203752
0.499664 -0.009071872 -0.51111835 0.31384724 -0.012807386 0.31231502 0.50504667 0.38176507
0.30178607 0.72510976 -0.58732814 -0.03421501 0.20791657 -0.085474916 -0.16396149 0.13513833
-0.024109285 0.32113853 -0.12255586 0.13469343 -0.30550376 0.20601435 0.16113816 0.6777723
0.76985985 0.2812979 0.5004009 0.16692981 0.6394788 0.29424152 0.27911723 0.1886682
-0.05602483 0.32536632 0.4030393 0.71888965 0.40098217 0.42470437 0.32921448 0.45301375
0.2382543 -0.09969361 0.53386486 0.44061348 0.3174241 0.56536615 0.5084306 -0.25524527
0.15680523 -0.07078719 0.15113004 -0.40518925 -0.92100745 0.39515924 0.28705436 -0.102260455
0.31224173 0.023800235 0.022162609 0.15531307 0.38441506 0.22660038 0.6232313 0.28149536
0.3754874 0.65408516 0.30869505 0.19240582 0.32608908 0.006443648 0.38990465 0.32342458
-0.0928212 0.47203162 0.07009036 0.47456303 -0.3053086 0.23484781 0.3908399 0.60668033
0.4405692 -0.15758786 0.3874386 0.44416192 -0.04931745 0.010004811 0.5522034 0.3599043
-0.46416754 0.073166 -0.062547036 0.4940202 0.44366756 0.30239832 0.11695152 0.48581895
0.3370866 0.39652914 0.6482376 0.3266029 0.44450057 0.2343972 0.37667334 0.3546849
0.3675593 -0.33402613 0.2502999 0.019850595 0.012940601 -0.2508029 0.26894653 0.24162947
-0.1789883 -0.2290231 0.45578814 0.3127691 0.41403338 -0.12955232 0.6178313 -0.020763673
0.5034061 0.69229376 -0.3265326 -0.5269259 0.35690007 0.29878467 0.30787212 0.4286971
-0.43179896 -0.23585944 0.12074615 -0.28016084 -0.6861289 -0.13439663 0.6910027 0.2335971
0.83650607 -0.19714166 -0.22271493 -0.38634267 0.10610968 0.39909732 0.21137549 -0.16047445
-0.064125165 0.4455158 -0.21233393 -0.25729775 0.31844413 0.09683792 0.09821011 -0.190626
-0.35073274 -0.21191777 0.05489968 -0.13720237 -0.28323826 0.3946329 0.50019634 -0.009422983
00000000: 5b20 f43e 9860 cfbe b37e 843f 852f e3be
00000010: 824b b93e a383 e43e 2052 b33e 25ff de3e
00000020: 3c65 04bf 7644 90be 43e7 283f a143 25bf
00000030: e127 1cbf 03f1 3dbd d5b6 113f 0523 853d
00000040: 2290 363f c8a4 93be 28b9 9b3c 1dd4 4bbe
00000050: f326 90bd 5e38 9ebe 7127 8abe 0a58 bebe
00000060: d851 88be 356f 86be 2b5e 1fbe 1c81 e1be
00000070: c2c8 0a3f 683e 72bd d9a7 1ebf 3062 72bd
00000080: 8c3d a1be eea9 c83e c952 873e 0e3e 0b3f
00000090: 0372 82be f126 103f 96d3 873e 913f 423e
000000a0: b09b 3c3e 96fe 5dbd f491 9dbe 0952 293f
000000b0: eac7 a53e e143 3f3f 13a6 363f 126d 663e
000000c0: c1e6 da3e 184b 90be 9830 843d 6a7b 733e
000000d0: 6246 b53e b928 923e f0f5 a9be 1459 ff3e
000000e0: 48d4 bb3d 01a7 173f 0a47 86be 5aba 96be
000000f0: a4fb 77be 2035 e1be 1a3e 603d 3006 7a3e
00000100: 78c7 e1bc ee48 85be 89cd a0be 4498 25bf
00000110: 3c66 d8be ff0b 1a3e 8d67 b4be bcb7 763e
00000120: d637 3c3f 8089 adbd 809a 25bf b2ab 99be
00000130: 9256 26bf 98c0 b93e 2132 49be 159c 25bf
00000140: 01ea 9f3e 437e 4bbe 3134 4d3e 59ed 1b3d
00000150: db34 0dbf d7b5 e53e 4646 c43d 8213 273e
00000160: 72fe 843e 3e26 483d 06c5 62bf 8779 6fbe
00000170: 66d5 3a3a c8b5 183f 3fd2 303f afd8 77be
00000180: f6d3 ff3e 30a2 14bc a7d8 02bf 96b0 a03e
00000190: 12d6 51bc c1e7 9f3e bd4a 013f b676 c33e
000001a0: b483 9a3e cba0 393f 235b 16bf 0a25 0cbd
000001b0: 15e8 543e 790d afbd 85e5 27be b461 0a3e
000001c0: d680 c5bc 456c a43e 91fe fabd 13ed 093e
000001d0: fd6a 9cbe 6df5 523e 6701 253e 7c82 2d3f
000001e0: 8915 453f 4706 903e 461a 003f a6ef 2a3e
000001f0: e2b4 233f d3a6 963e 74e8 8e3e 3d32 413e
00000200: 4b7a 65bd 6a96 a63e 2b5b ce3e 2709 383f
00000210: 894d cd3e da72 d93e cd8e a83e 6bf1 e73e
00000220: eff8 733e 2a2c ccbd 5eab 083f 1798 e13e
00000230: 6985 a23e d6bb 103f 8228 023f 82af 82be
00000240: 8d91 203e e0f8 90bd d5c1 1a3e f774 cfbe
00000250: 25c7 6bbf 5052 ca3e caf8 923e ee6d d1bd
00000260: 26de 9f3e b6f8 c23c 5c8e b53c 640a 1f3e
00000270: 0dd2 c43e ee09 683e 168c 1f3f 2920 903e
00000280: e23f c03e 2072 273f 470d 9e3e 0806 453e
00000290: 26f5 a63e 3d25 d33b 95a1 c73e e897 a53e
000002a0: 0b19 bebd 21ae f13e 898b 8f3d edf9 f23e
000002b0: 6951 9cbe f27b 703e 2b1c c83e 674f 1b3f
000002c0: 4992 e13e b65e 21be 5a5e c63e 3169 e33e
000002d0: 1801 4abd 38eb 233c 345d 0d3f 6045 b83e
000002e0: 5ea7 edbe 0ed8 953d a918 80bd 37f0 fc3e
000002f0: 6528 e33e f4d3 9a3e 4784 ef3d 43bd f83e
00000300: 9d96 ac3e de05 cb3e e6f2 253f 7f38 a73e
00000310: 9495 e33e d205 703e 54db c03e 4299 b53e
00000320: bc30 bc3e 7905 abbe 4f27 803e b79d a23c
00000330: d104 543c 3d69 80be 5cb3 893e b76d 773e
00000340: b548 37be 0885 6abe 105d e93e 4523 a03e
00000350: 2ffc d33e 5da9 04be 312a 1e3f 9418 aabc
00000360: 39df 003f 2a3a 313f 482f a7be 9ee4 06bf
00000370: 9bbb b63e 4efa 983e 6aa1 9d3e 307e db3e
00000380: c114 ddbe 2385 71be c249 f73d 3e71 8fbe
00000390: 25a6 2fbf 459f 09be 8ee5 303f 1434 6f3e
000003a0: 4325 563f 81df 49be 620f 64be b5ce c5be
000003b0: 0850 d93d 7c56 cc3e d172 583e 6a53 24be
000003c0: 0e54 83bd a61a e43e 116e 59be 88bc 83be
000003d0: 1c0b a33e f652 c63d 6222 c93d 7633 43be
000003e0: 3e93 b3be f900 59be 7dde 603d c77e 0cbe
000003f0: 9b04 91be 530d ca3e de0c 003f db62 1abc

l1.bias f4 [8]
0.6468952 1.042375 0.63750225 0.75515807 0.8315995 0.764373 0.6689363 0.91738504
00000000: ec9a 253f 8b6c 853f 5933 233f 0a52 413f
00000010: b4e3 543f f3ad 433f 693f 2b3f bfd9 6a3f

l2.weight f4 [8, 8]
0.17398992 0.059498563 -0.18748766 -0.18281505 0.047078058 -0.0064369254 -0.20655802 0.12562467
-1.2903898 -0.3161559 0.71651584 0.21567072 1.3778486 -1.2705761 -0.2527143 1.1328263
-0.16604117 1.0109564 1.7734171 1.9421743 -0.20583628 -1.0012224 0.36575824 -0.32037666
1.1289136 -0.08451642 1.2894549 -0.11758248 2.1332355 -0.9057854 1.498228 0.7452543
-1.5704616 1.3783015 -1.2147601 0.26536876 -0.24967322 0.94371176 -1.4593655 1.5485455
-0.66039306 -0.28943667 -0.051207446 0.16994911 -0.004231239 0.325927 -0.0005479538 1.5099549
1.6272339 1.3203957 0.4227043 0.6199689 -1.3240669 1.9843452 -0.20934053 -0.6155009
-0.67529094 0.73512554 1.4492731 1.3025438 0.0067639328 -0.3434632 -1.317711 -0.4201033
00000000: 6a2a 323e c4b4 733d c4fc 3fbe de33 3bbe
00000010: ecd4 403d d8ec d2bb f283 53be c1a3 003e
00000020: 7e2b a5bf 30df a1be 956d 373f c9d8 5c3e
00000030: 585d b03f 3da2 a2bf c563 81be 7400 913f
00000040: b206 2abe 0567 813f 55ff e23f 2b99 f83f
00000050: bfc6 52be 0e28 80bf aa44 bb3e 6908 a4be
00000060: 3e80 903f f216 adbd dc0c a53f 15cf f0bd
00000070: ee86 0840 8de1 67bf efc5 bf3f fcc8 3e3f
00000080: e304 c9bf 2f6c b03f 427d 9bbf 6ade 873e
00000090: 56aa 7fbe 1897 713f 7dcc babf bd36 c63f
000000a0: 850f 29bf 0b31 94be e6be 51bd 2407 2e3e
000000b0: 35a6 8abb e7df a63e 8fa4 0fba 3446 c13f
000000c0: 3349 d03f ba02 a93f b36c d83e 48b6 1e3f
000000d0: 067b a9bf 06ff fd3f 5d5d 56be 7891 1dbf
000000e0: dedf 2cbf 3031 3c3f c881 b93f c1b9 a63f
000000f0: fba3 dd3b 69da afbe c1aa a8bf c817 d7be

l2.bias f4 [8]
-0.39507547 -0.014472711 0.26977906 0.8683656 0.6820451 0.04656693 0.80160636 0.052898727
00000000: 5547 cabe f31e 6dbc 7b20 8a3e 354d 5e3f
00000010: 829a 2e3f f7bc 3e3d 1336 4d3f 56ac 583d

l3.weight f4 [8, 8]
-0.98649085 0.5870386 -1.264949 0.88409275 -1.566897 0.5971868 -1.599629 -1.1417654
-0.15981768 -2.036794 0.8300065 0.75546515 -1.0260167 -1.878633 -0.6421938 -1.2562852
0.06317877 0.40392974 -0.34855574 -0.025020381 0.94187254 0.41895163 -1.1458665 -0.43942648
-0.032448843 -0.7281669 -1.207902 -1.8429798 0.19722591 -0.90470326 0.9772273 -1.0789675
0.25687814 -0.9520639 0.6582526 -0.73996633 -1.1841428 -1.6314282 0.2146622 0.8022562
0.014582158 -1.4768523 0.3232134 -1.5933969 0.8590485 0.7231128 -0.16642739 0.34598497
0.18190376 -1.3828508 -2.0475843 0.28314194 -2.0656493 0.14460132 0.88458776 -0.5375461
0.068665415 0.8152735 0.516448 -0.12901726 -1.5333227 -0.12970103 -1.1504697 0.80891037
00000000: aa8a 7cbf 2948 163f d9e9 a1bf e753 623f
00000010: 1590 c8bf 3ce1 183f a5c0 ccbf 5e25 92bf
00000020: 3fa7 23be d55a 02c0 4e7b 543f 2a66 413f
00000030: 8454 83bf 0c77 f0bf d066 24bf f4cd a0bf
00000040: df63 813d e1cf ce3e e675 b2be 8bf7 ccbc
00000050: 8f1e 713f d480 d63e c1ab 92bf 82fc e0be
00000060: 14e9 04bd 2569 3abf 889c 9abf c3e6 ebbf
00000070: 97f5 493e a29a 67bf 912b 7a3f 9b1b 8abf
00000080: 8885 833e 76ba 73bf 3e83 283f 6f6e 3dbf
00000090: fe91 97bf a4d2 d0bf 68d0 5b3e aa60 4d3f
000000a0: 01ea 6e3c 7f09 bdbf 3a7c a53e 6ef4 cbbf
000000b0: 9aea 5b3f ec1d 393f f16b 2abe f124 b13e
000000c0: fb44 3a3e 4101 b1bf 9f0b 03c0 fbf7 903e
000000d0: 9933 04c0 5e12 143e 5874 623f 9f9c 09bf
000000e0: 74a0 8c3d c4b5 503f f035 043f 1a1d 04be
000000f0: eb43 c4bf 59d0 04be 9742 93bf c014 4f3f

l3.bias f4 [8]
0.25590533 0.33225837 0.015606257 -0.1555253 -0.43573472 0.036384117 0.41146278 -0.35539588
00000000: 0606 833e c51d aa3e 63b1 7f3c 0642 1fbe
00000010: 9f18 dfbe 8307 153d 40ab d23e 73f6 b5be
